clip_linear_head.pt (torch, 20781 bytes, 2 tensors)

fc.weight f4 [9, 512]
00000000: d0b4 853c f928 84bc 974a 793b ab02 343c
00000010: e29e 493c debd 193d c609 923b c80c 02bd
00000020: ba89 1d3d 3c77 03bc 3bb4 3e3c 5ec8 693c
00000030: 086a 1cbc a119 dd3c 3585 153c 95dd 013d
00000040: 2816 b3bb c326 23bc 61ac 8d3c cc60 0abd
00000050: c87f ab3c 6b56 fdbc 440a 713a 5a75 df3c
00000060: d738 313d 4bc9 463b f66e b93a 8d8a 093d
00000070: 720f 98bb 1f58 2cbd 395c 55bc 58e8 a73a
00000080: 6dc0 c6bc a48e 3d3d de14 143d b4ce f9bc
00000090: ced5 fbbc d9da b0bc 2786 9bbc b057 6eb9
000000a0: e4a4 7bbc 3fe8 14bd 3f7d dc3b c5c5 97bb
000000b0: d2b5 01bc 4d6d 283d b13b 553d a528 12bd
000000c0: f80b 103b d78f 39bc 1b0c e93c af29 eebc
000000d0: fe5b 9a3b c5f5 063d 4355 993c 71a3 b5bc
000000e0: 44cf fbba d586 e7bb 8127 d93c 7b3a b5bc
000000f0: 001b 0f3d c007 813c 6cf3 a13b 5d72 5ebc
00000100: bb45 d63c 0eca a5bc 9c19 ca3c 055b 6e3b
00000110: 247d 3ebc 250e fa3c 6a15 0abd 4a8b f73c
00000120: a869 f63c 397c 2a3d fdaa 7fbb 9123 d2bc
00000130: 9a36 643b edc9 8abc 88d7 1e3d 7cc9 b33c
00000140: 4f04 9cbc 1dc5 0c3d ee5c 903c a2e6 e93c
00000150: 87be f0bc b234 9dbc 5c1c 0cbd 71bf dc3c
00000160: bc7b 2bbd 25ad 29bd 62cb 8d3b ed07 dd3b
00000170: b14d 55bd 92ed 193d e685 10bd 2065 f0bc
00000180: 025a 573d 0aea 0e3b 0969 d73c fb78 153d
00000190: 02a4 ecbc d72f d23c 91e2 b2bc 9e25 b43b
000001a0: a4ef ce3c c22e ed3b 040e 39bc ef22 67bc
000001b0: e0ce f93c 4480 82bb 294c 003c 4305 ca3c
000001c0: 4d49 363c ab48 2fbc b4f3 8ebc 7de2 14bd
000001d0: c119 f6bb 7def 5a3c 43cf 2dbd 613d d53c
000001e0: 5317 d53c cc0b af3c 613c 483d a399 efbc
000001f0: e249 bf3c b95d 21bd 1bca 8abc 582f 09bd
00000200: 540d a93c 58fb a63b 80f5 c03c ff9c 1abc
00000210: 691c 06bd 5aba b93c 056b 17bb fe59 463d
00000220: 1194 0c3d 7533 1a3d a8e8 61bc 4957 0fbd
00000230: 4872 573c ebb6 4fbd b229 153d 8846 b03c
00000240: c31c b8bc 383a fd3b ccef b4bc dc09 f9bc
00000250: e78a 023c 0b05 3bbd 3148 d43c f9fa 7abc
00000260: 5e95 82bc 3ff8 ed3b dd4d 2fbb c94d 3fbd
00000270: 1c49 07bd 45ea f43c 940d 363b c8bc 003d
00000280: d30a aabc 6170 743c da87 133c c45a 2c3d
00000290: c6f6 99bc e3ad 143d 008c 4e3a 1b19 16bc
000002a0: 4656 d33c 5cbf 3bbc b2ef ca3c 3367 b4bb
000002b0: 1d49 4a3d 9a7f c6bc 3744 94bc bea5 06bd
000002c0: f51c f63c 8734 aabc 8290 903c e611 6abc
000002d0: 716a 9a3c bb67 4bbc eddc eabc a6e0 8d3c
000002e0: afee 8e3c 20dd 65bb 61ff 1cbd 8d99 03bd
000002f0: 345f 25bc 3005 0e3d dc18 2c3c dec5 0e3c
00000300: f121 1c3c 803d 223d 6eea b4bc 49d3 6b3c
00000310: c9f6 bebc a104 fabc ce02 b4bc c2ab 94bc
00000320: 50ca 2dbb aada dcba 1f74 c1bc 1d28 a9bc
00000330: 7774 08bd fd39 313b c190 293d d5a8 c83c
00000340: 98c6 313d efdd 05bd 7af4 06bd 8dac 95bc
00000350: 8d62 ba3c e5cd 093d 472d 393d 9a3a a8bc
00000360: f9ea 903b e956 753c f42a cc3b 606c cabc
00000370: cbfd 21bd 0ed6 1b3d 123b aa3c 87b5 23bd
00000380: 3941 61bc 45bc 943c 02cb d8bc 9c92 293b
00000390: 8f5e 1e3b 06bc c4bc 63dc c0bb f871 173c
000003a0: 4564 4cbc 8045 42bd 4bd2 a63c 79cd 25bc
000003b0: f6a8 a4bc ea3c 8d3c 0e1f ddbc 8782 aa3c
000003c0: 27bf e73c 0291 893c 107b 08bc aef7 063d
000003d0: 06b8 d1bc 325d 5c3c f886 08bd f0aa 0d3c
000003e0: f8db 12bd 4483 37bd 21b4 213d 9a7d 153d
000003f0: f3a2 c6bc c7e1 f13b 5e6e 19bc 2612 5cbc
0.01632157 -0.016132819 0.0038038844 0.010986964 0.012305947 0.037534587 0.0044567315 -0.03175047
0.038461424 -0.008024033 0.01163965 0.014268963 -0.009546764 0.02698976 0.009125997 0.031705458
-0.0054652877 -0.009957972 0.01729411 -0.03378372 0.020934954 -0.030924996 0.000919495 0.027277637
0.043267097 0.0030332382 0.0014147449 0.033579398 -0.004640513 -0.042076226 -0.013022476 0.0012810333
-0.024261678 0.04627861 0.036152713 -0.030494072 -0.030741598 -0.02158873 -0.018984867 -0.00022730115
-0.015359137 -0.0363543 0.0067287977 -0.0046317303 -0.0079168845 0.041119862 0.05205888 -0.035683293
0.002197979 -0.011325798 0.028448155 -0.02907261 0.0047106734 0.032949228 0.018717414 -0.022172661
-0.001921155 -0.007065634 0.026508095 -0.022122612 0.03493786 0.015750766 0.004942348 -0.013577071
0.026156297 -0.020237949 0.024670415 0.003637017 -0.011626516 0.030524323 -0.03371183 0.030217785
0.030079678 0.041622374 -0.003901183 -0.025651725 0.0034822584 -0.016941989 0.038779765 0.021946661
-0.019045023 0.03436767 0.017622437 0.028552357 -0.029387726 -0.019190166 -0.034206733 0.026946755
-0.04186605 -0.04142489 0.0043272236 0.0067453296 -0.052076045 0.03758008 -0.035283946 -0.029345095
0.052576073 0.0021806979 0.026295202 0.03649233 -0.028886799 0.025657577 -0.02183655 0.0054976484
0.025260754 0.00723824 -0.0112948455 -0.01410745 0.030494153 -0.0039825756 0.007830658 0.024660712
0.011125875 -0.010698478 -0.017450191 -0.03634881 -0.0075103943 0.0133627625 -0.04243399 0.026030244
0.026012098 0.02136793 0.048885707 -0.029248064 0.02335066 -0.03939602 -0.016942075 -0.033492416
0.020636238 0.0050958805 0.023554564 -0.009436845 -0.032741938 0.022671867 -0.002310456 0.048425667
0.034320895 0.03764673 -0.01378838 -0.03499535 0.013149805 -0.050711554 0.036416717 0.021518007
-0.022474652 0.0077278875 -0.022087 -0.03040021 0.007967687 -0.045659106 0.02591333 -0.015318626
-0.015940364 0.0072622593 -0.002674929 -0.04670504 -0.033028707 0.029896865 0.002777909 0.031430036
-0.020757115 0.014919371 0.0090045575 0.04207875 -0.018794429 0.036298644 0.0007879138 -0.009161259
0.025797974 -0.011459198 0.024772499 -0.0055054664 0.049386133 -0.024230767 -0.018098934 -0.032872908
0.030043105 -0.020777 0.017647032 -0.014286494 0.018849583 -0.012414868 -0.028669799 0.017319035
0.017447798 -0.0035074428 -0.038329486 -0.03212886 -0.010093499 0.034672916 0.010503974 0.008714167
0.009529577 0.039609432 -0.022084441 0.014393636 -0.023311036 -0.030519785 -0.021973994 -0.018148307
-0.0026518293 -0.0016849835 -0.023614941 -0.02064901 -0.033314195 0.002704262 0.041397814 0.024494568
0.043402284 -0.032682355 -0.032947995 -0.018270755 0.02275207 0.033643622 0.045209195 -0.020535756
0.004422542 0.014974334 0.0062307063 -0.02470988 -0.039548676 0.038045935 0.02078012 -0.03996804
-0.01374846 0.01815618 -0.02646399 0.002587474 0.0024165248 -0.024015438 -0.005885647 0.009243481
-0.012475078 -0.04742956 0.020363947 -0.010119789 -0.020100098 0.01724096 -0.026992347 0.020814193
0.02828939 0.016792778 -0.008330122 0.03295105 -0.025600445 0.013449954 -0.03333184 0.008646712
-0.03585431 -0.04480292 0.039478425 0.036496736 -0.024247622 0.007381651 -0.0093646925 -0.013432061

fc.bias f4 [9]
00000000: d68e bdbb 6c63 de3c 9783 d63c 3b33 3bbd
00000010: a1a6 8bba 7757 763c 37c1 263d 4d90 4b3d
00000020: a5a5 9cbc
-0.0057848496 0.027147017 0.026185794 -0.045703154 -0.0010654518 0.015035502 0.040711608 0.049698163
-0.019121954
